…
r any use case where you don't have full control of the loaded file. Please open an issue on GitHub for any issues related to this experimental feature.
  checkpoint = torch.load(ckpt_path, map_location=torch.device("cpu"))
[2025-06-12 14:07:24,343 INFO] Building model...
[2025-06-12 14:07:24,367 INFO] Switching model to float32 for amp/apex_amp
[2025-06-12 14:07:24,367 INFO] Non quantized layer compute is fp16
[2025-06-12 14:07:24,455 INFO] NMTModel(
  (encoder): TransformerEncoder(
    (embeddings): Embeddings(
      (make_embedding): Sequential(
        (emb_luts): Elementwise(
          (0): Embedding(18944, 256, padding_idx=1)
        )
        (pe): PositionalEncoding()
      )
      (dropout): Dropout(p=0.3, inplace=False)
    )
    (transformer): ModuleList(
      (0-3): 4 x TransformerEncoderLayer(
        (self_attn): MultiHeadedAttention(
          (linear_keys): Linear(in_features=256, out_features=256, bias=False)
          (linear_values): Linear(in_features=256, out_features=256, bias=False)
          (linear_query): Linear(in_features=256, out_features=256, bias=False)
          (softmax): Softmax(dim=-1)
          (dropout): Dropout(p=0.3, inplace=False)
          (final_linear): Linear(in_features=256, out_features=256, bias=False)
        )
        (feed_forward): PositionwiseFeedForward(
          (w_1): Linear(in_features=256, out_features=1024, bias=False)
          (w_2): Linear(in_features=1024, out_features=256, bias=False)
          (layer_norm): LayerNorm((256,), eps=1e-06, elementwise_affine=True)
          (dropout_1): Dropout(p=0.3, inplace=False)
          (dropout_2): Dropout(p=0.3, inplace=False)
        )
        (layer_norm): LayerNorm((256,), eps=1e-06, elementwise_affine=True)
        (dropout): Dropout(p=0.3, inplace=False)
      )
    )
    (layer_norm): LayerNorm((256,), eps=1e-06, elementwise_affine=True)
  )
  (decoder): TransformerDecoder(
    (embeddings): Embeddings(
      (make_embedding): Sequential(
        (emb_luts): Elementwise(
          (0): Embedding(18320, 256, padding_idx=1)
        )
        (pe): PositionalEncoding()
      )
      (dropout): Dropout(p=0.3, inplace=False)
    )
    (layer_norm): LayerNorm((256,), eps=1e-06, elementwise_affine=True)
    (transformer_layers): ModuleList(
      (0-3): 4 x TransformerDecoderLayer(
        (self_attn): MultiHeadedAttention(
          (linear_keys): Linear(in_features=256, out_features=256, bias=False)
          (linear_values): Linear(in_features=256, out_features=256, bias=False)
          (linear_query): Linear(in_features=256, out_features=256, bias=False)
          (softmax): Softmax(dim=-1)
          (dropout): Dropout(p=0.3, inplace=False)
          (final_linear): Linear(in_features=256, out_features=256, bias=False)
        )
        (feed_forward): PositionwiseFeedForward(
          (w_1): Linear(in_features=256, out_features=1024, bias=False)
          (w_2): Linear(in_features=1024, out_features=256, bias=False)
          (layer_norm): LayerNorm((256,), eps=1e-06, elementwise_affine=True)
          (dropout_1): Dropout(p=0.3, inplace=False)
          (dropout_2): Dropout(p=0.3, inplace=False)
        )
        (layer_norm_1): LayerNorm((256,), eps=1e-06, elementwise_affine=True)
        (dropout): Dropout(p=0.3, inplace=False)
        (context_attn): MultiHeadedAttention(
          (linear_keys): Linear(in_features=256, out_features=256, bias=False)
          (linear_values): Linear(in_features=256, out_features=256, bias=False)
          (linear_query): Linear(in_features=256, out_features=256, bias=False)
          (softmax): Softmax(dim=-1)
          (dropout): Dropout(p=0.3, inplace=False)
          (final_linear): Linear(in_features=256, out_features=256, bias=False)
        )
        (layer_norm_2): LayerNorm((256,), eps=1e-06, elementwise_affine=True)
      )
    )
  )
  (generator): Linear(in_features=256, out_features=18320, bias=True)
)
[2025-06-12 14:07:24,456 INFO] encoder: 8000000
[2025-06-12 14:07:24,456 INFO] decoder: 13599120
[2025-06-12 14:07:24,456 INFO] * number of parameters: 21599120
[2025-06-12 14:07:24,456 INFO] Trainable parameters = {'torch.float32': 21599120, 'torch.float16': 0, 'torch.uint8': 0, 'torch.int8': 0}
[2025-06-12 14:07:24,456 INFO] Non trainable parameters = {'torch.float32': 0, 'torch.float16': 0, 'torch.uint8': 0, 'torch.int8': 0}
…
