…
[2025-06-13 00:51:22,983 INFO] Get special vocabs from Transforms: {'src': [], 'tgt': []}.
[2025-06-13 00:51:23,009 INFO] The first 10 tokens of the vocabs are:['<unk>', '<blank>', '<s>', '</s>', ',', '▁the', '.', '▁to', '▁and', '▁of']
[2025-06-13 00:51:23,009 INFO] The decoder start token is: <s>
[2025-06-13 00:51:23,009 INFO] Building model...
[2025-06-13 00:51:23,054 INFO] Switching model to float32 for amp/apex_amp
[2025-06-13 00:51:23,054 INFO] Non quantized layer compute is fp16
[2025-06-13 00:51:23,133 INFO] NMTModel(
  (encoder): TransformerEncoder(
    (embeddings): Embeddings(
      (make_embedding): Sequential(
        (emb_luts): Elementwise(
          (0): Embedding(7136, 192, padding_idx=1)
        )
        (pe): PositionalEncoding()
      )
      (dropout): Dropout(p=0.4, inplace=False)
    )
    (transformer): ModuleList(
      (0-2): 3 x TransformerEncoderLayer(
        (self_attn): MultiHeadedAttention(
          (linear_keys): Linear(in_features=192, out_features=192, bias=False)
          (linear_values): Linear(in_features=192, out_features=192, bias=False)
          (linear_query): Linear(in_features=192, out_features=192, bias=False)
          (softmax): Softmax(dim=-1)
          (dropout): Dropout(p=0.4, inplace=False)
          (final_linear): Linear(in_features=192, out_features=192, bias=False)
        )
        (feed_forward): PositionwiseFeedForward(
          (w_1): Linear(in_features=192, out_features=768, bias=False)
          (w_2): Linear(in_features=768, out_features=192, bias=False)
          (layer_norm): LayerNorm((192,), eps=1e-06, elementwise_affine=True)
          (dropout_1): Dropout(p=0.4, inplace=False)
          (dropout_2): Dropout(p=0.4, inplace=False)
        )
        (layer_norm): LayerNorm((192,), eps=1e-06, elementwise_affine=True)
        (dropout): Dropout(p=0.4, inplace=False)
      )
    )
    (layer_norm): LayerNorm((192,), eps=1e-06, elementwise_affine=True)
  )
  (decoder): TransformerDecoder(
    (embeddings): Embeddings(
      (make_embedding): Sequential(
        (emb_luts): Elementwise(
          (0): Embedding(7496, 192, padding_idx=1)
        )
        (pe): PositionalEncoding()
      )
      (dropout): Dropout(p=0.4, inplace=False)
    )
    (layer_norm): LayerNorm((192,), eps=1e-06, elementwise_affine=True)
    (transformer_layers): ModuleList(
      (0-2): 3 x TransformerDecoderLayer(
        (self_attn): MultiHeadedAttention(
          (linear_keys): Linear(in_features=192, out_features=192, bias=False)
          (linear_values): Linear(in_features=192, out_features=192, bias=False)
          (linear_query): Linear(in_features=192, out_features=192, bias=False)
          (softmax): Softmax(dim=-1)
          (dropout): Dropout(p=0.4, inplace=False)
          (final_linear): Linear(in_features=192, out_features=192, bias=False)
        )
        (feed_forward): PositionwiseFeedForward(
          (w_1): Linear(in_features=192, out_features=768, bias=False)
          (w_2): Linear(in_features=768, out_features=192, bias=False)
          (layer_norm): LayerNorm((192,), eps=1e-06, elementwise_affine=True)
          (dropout_1): Dropout(p=0.4, inplace=False)
          (dropout_2): Dropout(p=0.4, inplace=False)
        )
        (layer_norm_1): LayerNorm((192,), eps=1e-06, elementwise_affine=True)
        (dropout): Dropout(p=0.4, inplace=False)
        (context_attn): MultiHeadedAttention(
          (linear_keys): Linear(in_features=192, out_features=192, bias=False)
          (linear_values): Linear(in_features=192, out_features=192, bias=False)
          (linear_query): Linear(in_features=192, out_features=192, bias=False)
          (softmax): Softmax(dim=-1)
          (dropout): Dropout(p=0.4, inplace=False)
          (final_linear): Linear(in_features=192, out_features=192, bias=False)
        )
        (layer_norm_2): LayerNorm((192,), eps=1e-06, elementwise_affine=True)
      )
    )
  )
  (generator): Linear(in_features=192, out_features=7496, bias=True)
)
[2025-06-13 00:51:23,134 INFO] encoder: 2699904
[2025-06-13 00:51:23,134 INFO] decoder: 4659272
[2025-06-13 00:51:23,134 INFO] * number of parameters: 7359176
[2025-06-13 00:51:23,134 INFO] Trainable parameters = {'torch.float32': 7359176, 'torch.float16': 0, 'torch.uint8': 0, 'torch.int8': 0}
[2025-06-13 00:51:23,134 INFO] Non trainable parameters = {'torch.float32': 0, 'torch.float16': 0, 'torch.uint8': 0, 'torch.int8': 0}
…
